…
2020-03-13 11:56:59.582954: I tensorflow/core/common_runtime/gpu/gpu_device.cc:1304] Created TensorFlow device (/job:localhost/replica:0/task:0/device:GPU:0 with 10407 MB memory) -> physical GPU (device: 0, name: GeForce GTX 1080 Ti, pci bus id: 0000:08:00.0, compute capability: 6.1)
2020-03-13 11:57:03.867345: I tensorflow/stream_executor/platform/default/dso_loader.cc:44] Successfully opened dynamic library libcublas.so.10
2020-03-13 11:57:04.229806: I tensorflow/stream_executor/platform/default/dso_loader.cc:44] Successfully opened dynamic library libcudnn.so.7
Model: "model_1"
_________________________________________________________________
Layer (type)                 Output Shape              Param #   
=================================================================
input_1 (InputLayer)         (None, 187, 1)            0         
_________________________________________________________________
conv1d_1 (Conv1D)            (None, 187, 16)           96        
_________________________________________________________________
conv1d_2 (Conv1D)            (None, 187, 16)           1296      
_________________________________________________________________
max_pooling1d_1 (MaxPooling1 (None, 93, 16)            0         
_________________________________________________________________
dropout_1 (Dropout)          (None, 93, 16)            0         
_________________________________________________________________
conv1d_3 (Conv1D)            (None, 93, 32)            1568      
_________________________________________________________________
conv1d_4 (Conv1D)            (None, 93, 32)            3104      
_________________________________________________________________
max_pooling1d_2 (MaxPooling1 (None, 46, 32)            0         
_________________________________________________________________
dropout_2 (Dropout)          (None, 46, 32)            0         
_________________________________________________________________
conv1d_5 (Conv1D)            (None, 46, 32)            3104      
_________________________________________________________________
conv1d_6 (Conv1D)            (None, 46, 32)            3104      
_________________________________________________________________
max_pooling1d_3 (MaxPooling1 (None, 23, 32)            0         
_________________________________________________________________
dropout_3 (Dropout)          (None, 23, 32)            0         
_________________________________________________________________
conv1d_7 (Conv1D)            (None, 21, 256)           24832     
_________________________________________________________________
conv1d_8 (Conv1D)            (None, 19, 256)           196864    
_________________________________________________________________
global_max_pooling1d_1 (Glob (None, 256)               0         
_________________________________________________________________
dropout_4 (Dropout)          (None, 256)               0         
_________________________________________________________________
dense_1 (Dense)              (None, 64)                16448     
_________________________________________________________________
dense_2 (Dense)              (None, 64)                4160      
_________________________________________________________________
dense_3_mitbih (Dense)       (None, 5)                 325       
=================================================================
Total params: 254,901
Trainable params: 254,901
Non-trainable params: 0
_________________________________________________________________
Train on 78798 samples, validate on 8756 samples
Epoch 1/1000
 - 23s - loss: 0.3065 - acc: 0.9139 - val_loss: 0.1907 - val_acc: 0.9444

Epoch 00001: val_acc improved from -inf to 0.94438, saving model to causal_mitbih.h5
…
