…
2020-03-13 14:05:08.040725: I tensorflow/core/common_runtime/gpu/gpu_device.cc:1304] Created TensorFlow device (/job:localhost/replica:0/task:0/device:GPU:0 with 10407 MB memory) -> physical GPU (device: 0, name: GeForce GTX 1080 Ti, pci bus id: 0000:08:00.0, compute capability: 6.1)
2020-03-13 14:05:11.619547: I tensorflow/stream_executor/platform/default/dso_loader.cc:44] Successfully opened dynamic library libcublas.so.10
Model: "model_1"
_________________________________________________________________
Layer (type)                 Output Shape              Param #   
=================================================================
input_1 (InputLayer)         (None, 187, 1)            0         
_________________________________________________________________
flatten_1 (Flatten)          (None, 187)               0         
_________________________________________________________________
pre_dense_1 (Dense)          (None, 100)               18800     
_________________________________________________________________
dropout_1 (Dropout)          (None, 100)               0         
_________________________________________________________________
pre_dense_2 (Dense)          (None, 200)               20200     
_________________________________________________________________
dropout_2 (Dropout)          (None, 200)               0         
_________________________________________________________________
pre_dense_3 (Dense)          (None, 200)               40200     
_________________________________________________________________
dropout_3 (Dropout)          (None, 200)               0         
_________________________________________________________________
pre_dense_4 (Dense)          (None, 200)               40200     
_________________________________________________________________
dropout_4 (Dropout)          (None, 200)               0         
_________________________________________________________________
dense_1 (Dense)              (None, 64)                12864     
_________________________________________________________________
dense_2 (Dense)              (None, 64)                4160      
_________________________________________________________________
dense_3_ptbdb (Dense)        (None, 1)                 65        
=================================================================
Total params: 136,489
Trainable params: 136,489
Non-trainable params: 0
_________________________________________________________________
Train on 10476 samples, validate on 1165 samples
Epoch 1/1000
 - 3s - loss: 0.4107 - acc: 0.8044 - val_loss: 0.3598 - val_acc: 0.8412

Epoch 00001: val_acc improved from -inf to 0.84120, saving model to ./models/fc_ptbdb.h5
…
