…
2020-03-13 11:59:05.571737: I tensorflow/stream_executor/platform/default/dso_loader.cc:44] Successfully opened dynamic library libcublas.so.10
2020-03-13 11:59:06.032968: I tensorflow/stream_executor/platform/default/dso_loader.cc:44] Successfully opened dynamic library libcudnn.so.7
Model: "model_1"
__________________________________________________________________________________________________
Layer (type)                    Output Shape         Param #     Connected to                     
==================================================================================================
input_1 (InputLayer)            (None, 187, 1)       0                                            
__________________________________________________________________________________________________
conv1d_1 (Conv1D)               (None, 187, 32)      192         input_1[0][0]                    
__________________________________________________________________________________________________
conv1d_2 (Conv1D)               (None, 187, 32)      5152        conv1d_1[0][0]                   
__________________________________________________________________________________________________
conv1d_3 (Conv1D)               (None, 187, 32)      5152        conv1d_2[0][0]                   
__________________________________________________________________________________________________
add_1 (Add)                     (None, 187, 32)      0           conv1d_1[0][0]                   
                                                                 conv1d_3[0][0]                   
__________________________________________________________________________________________________
max_pooling1d_1 (MaxPooling1D)  (None, 93, 32)       0           add_1[0][0]                      
__________________________________________________________________________________________________
dropout_1 (Dropout)             (None, 93, 32)       0           max_pooling1d_1[0][0]            
__________________________________________________________________________________________________
conv1d_4 (Conv1D)               (None, 93, 32)       3104        dropout_1[0][0]                  
__________________________________________________________________________________________________
conv1d_5 (Conv1D)               (None, 93, 32)       3104        conv1d_4[0][0]                   
__________________________________________________________________________________________________
add_2 (Add)                     (None, 93, 32)       0           dropout_1[0][0]                  
                                                                 conv1d_5[0][0]                   
__________________________________________________________________________________________________
max_pooling1d_2 (MaxPooling1D)  (None, 46, 32)       0           add_2[0][0]                      
__________________________________________________________________________________________________
dropout_2 (Dropout)             (None, 46, 32)       0           max_pooling1d_2[0][0]            
__________________________________________________________________________________________________
conv1d_6 (Conv1D)               (None, 46, 32)       3104        dropout_2[0][0]                  
__________________________________________________________________________________________________
conv1d_7 (Conv1D)               (None, 46, 32)       3104        conv1d_6[0][0]                   
__________________________________________________________________________________________________
add_3 (Add)                     (None, 46, 32)       0           dropout_2[0][0]                  
                                                                 conv1d_7[0][0]                   
__________________________________________________________________________________________________
max_pooling1d_3 (MaxPooling1D)  (None, 23, 32)       0           add_3[0][0]                      
__________________________________________________________________________________________________
dropout_3 (Dropout)             (None, 23, 32)       0           max_pooling1d_3[0][0]            
__________________________________________________________________________________________________
conv1d_8 (Conv1D)               (None, 23, 32)       3104        dropout_3[0][0]                  
__________________________________________________________________________________________________
conv1d_9 (Conv1D)               (None, 23, 32)       3104        conv1d_8[0][0]                   
__________________________________________________________________________________________________
add_4 (Add)                     (None, 23, 32)       0           max_pooling1d_3[0][0]            
                                                                 conv1d_9[0][0]                   
__________________________________________________________________________________________________
global_max_pooling1d_1 (GlobalM (None, 32)           0           add_4[0][0]                      
__________________________________________________________________________________________________
dropout_4 (Dropout)             (None, 32)           0           global_max_pooling1d_1[0][0]     
__________________________________________________________________________________________________
dense_1 (Dense)                 (None, 64)           2112        dropout_4[0][0]                  
__________________________________________________________________________________________________
dense_2 (Dense)                 (None, 64)           4160        dense_1[0][0]                    
__________________________________________________________________________________________________
dense_3_mitbih (Dense)          (None, 5)            325         dense_2[0][0]                    
==================================================================================================
Total params: 35,717
Trainable params: 35,717
Non-trainable params: 0
__________________________________________________________________________________________________
Train on 78798 samples, validate on 8756 samples
Epoch 1/1000
 - 30s - loss: 0.2884 - acc: 0.9194 - val_loss: 0.1654 - val_acc: 0.9542
…
